checkpoint.pth (torch_old, 28417 bytes, 6 tensors)

fc1.weight f4 [64, 37]
-0.2351196 0.17666815 -0.04029331 -0.09814752 0.11874312 -0.110198125 -0.082561925 0.12484251
0.15549591 0.018282525 -0.12273696 -0.18963996 0.00905514 -0.2769308 -0.33158636 0.13778667
-0.11503744 0.02106123 0.0044319676 -0.21697691 -0.12995242 0.08912924 0.12288677 -0.011743126
-0.16404994 0.18684067 0.094336994 -0.32668012 -0.09833393 -0.34396932 -0.49171746 0.14805038
0.13450317 -0.117491275 -0.45181158 -0.21027565 -0.013079408 0.30467242 0.005789471 0.011509558
-0.024411252 -0.34162268 0.034889765 -0.10814619 -0.117171876 -0.061478272 0.008769667 0.04247999
-0.0123011395 0.0027358588 0.06956922 0.06734644 0.026424548 0.08979087 0.0598182 0.09433127
-0.023254408 -0.13436006 -0.03414399 -0.04400268 -0.038048565 0.09080695 0.36504585 -0.02874198
-0.46755072 -0.20440836 -1.1712246 0.107513785 0.08042199 0.1218754 0.065393396 0.056126043
0.029088011 -0.0026375207 0.2655567 0.104959406 0.028753955 -0.034226544 -0.1111557 0.07653999
-0.39639673 0.20766796 0.21042046 -0.4586871 -0.047090374 -0.090930946 0.08158342 -0.24022612
-0.039301787 -0.23593684 0.16589396 0.18000413 0.025413586 0.24261996 -0.13580865 0.15543796
-0.017139835 -0.18808411 -0.09212994 -0.07131735 0.24742113 0.047423374 0.0072678174 -0.027038664
-0.18116088 -0.033660818 0.078652926 -0.47312146 -0.573105 0.09643993 -0.05125439 0.33896205
-0.0034047558 0.06259028 -0.031044215 -0.46143174 0.032792497 0.051971115 0.096588306 0.094871625
0.12480785 -0.02487 -0.052160405 0.005006761 -0.023912257 -0.04574399 0.21522512 -0.15357262
-0.33507887 -0.39974138 -1.196842 -0.008790745 0.02346829 0.020288423 0.104224086 0.1326957
0.04825501 0.029027548 0.12253849 0.21769446 0.15583012 0.038337804 0.15952408 0.13167025
0.07978774 0.0035860273 0.0036937504 0.005106013 -0.13239534 -0.05116158 -0.07008135 -0.13420475
-0.13616435 0.39266545 -0.556826 -0.42138916 -0.29385504 -1.8913494 -0.0019991726 -0.05292519
0.067155585 -0.041742202 -0.03872157 -0.07469083 -0.049087405 -0.052872684 0.024662549 0.26987618
-0.04633564 0.117330275 0.13284099 0.0076093315 0.17602508 0.14195754 0.1306684 0.11735806
0.10293282 -0.24916194 0.21754956 0.025003932 -0.039254088 0.04186069 -0.24808523 0.014964734
0.004368751 0.1064311 0.007841062 -0.089756794 -0.103155226 -0.1730753 0.15687796 0.109349236
-0.005468023 -0.3845882 -1.16686 0.021494597 -0.086187355 -0.034141183 0.064311534 0.095452905
0.09166092 -0.030417405 0.008124422 -0.0424432 -0.2708522 -0.10740613 0.12539096 0.18452989
0.111025505 0.26129916 0.09093367 0.09311813 -0.0774804 -0.42319497 -0.27935496 -0.08242684
0.13690321 0.12639943 -0.046235763 -0.044941146 0.013086223 -0.007970733 -0.11762459 -0.10072519
0.056994505 -0.015410573 -0.048518173 -0.24541883 -0.13326694 0.048961736 -0.11711328 0.3122194
-0.37069204 0.121318325 0.2090218 0.049915694 0.12162388 -0.109983906 -0.10321807 -0.061237983
0.09811903 0.12848821 -0.010823842 -0.15199223 0.14974904 -0.13155562 0.0038578354 -0.17221744
-0.14693855 -0.08512965 -0.007040129 0.16177052 -0.4364615 -0.09114321 0.20200558 0.0059869904
00000000: 31c3 70be 7fe8 343e 990a 25bd 9101 c9bd
00000010: 982f f33d 8eaf e1bd 3a16 a9bd 6ead ff3d
00000020: 523a 1f3e 3cc5 953c 845d fbbd fa30 42be
00000030: 035c 143c e0c9 8dbe b0c5 a9be f317 0d3e
00000040: c098 ebbd 9a88 ac3c 0a3a 913b 322f 5ebe
00000050: 3f12 05be 6489 b63d 0fac fb3d 3e66 40bc
00000060: b5fc 27be 2953 3f3e c133 c13d 9e42 a7be
00000070: 4d63 c9bd bf1c b0be 64c2 fbbe 859a 173e
00000080: 33bb 093e 449f f0bd d953 e7be 8052 57be
00000090: 034b 56bc 06fe 9b3e 9ab5 bd3b 9692 3c3c
000000a0: 1bfa c7bc 2be9 aebe 92e8 0e3d c07b ddbd
000000b0: cff7 efbd a4d0 7bbd a6ae 0f3c 7fff 2d3d
000000c0: b88a 49bc 184c 333b 4f7a 8e3d eeec 893d
000000d0: 4b78 d83c 47e4 b73d ee03 753d c130 c13d
000000e0: 0780 bebc af95 09be 92da 0bbd 273c 34bd
000000f0: d0d8 1bbd fff8 b93d 4ae7 ba3e 4d74 ebbc
00000100: cf62 efbe 6d50 51be b0ea 95bf 3030 dc3d
00000110: 49b4 a43d cf99 f93d f9ec 853d 6ce4 653d
00000120: fb49 ee3c 41da 2cbb 0cf7 873e f5f4 d63d
00000130: 6a8d eb3c 2231 0cbd 9aa5 e3bd 00c1 9c3d
00000140: 83f4 cabe e9a6 543e 7678 573e 09d9 eabe
00000150: d6e1 40bd 013a babd 3515 a73d d6fd 75be
00000160: e9fa 20bd 6d99 71be 1be0 293e 0153 383e
00000170: 2730 d03c 5e71 783e 6c11 0bbe 212b 1f3e
00000180: d768 8cbc 1f99 40be 9fae bcbd d50e 92bd
00000190: f75b 7d3e 033f 423d df26 ee3b 3080 ddbc
000001a0: 3d82 39be eddf 09bd c914 a13d fa3c f2be
000001b0: 02b7 12bf 4c82 c53d 20f0 51bd 6f8c ad3e
000001c0: 5322 5fbb 552f 803d 7050 febc c840 ecbe
000001d0: 6d51 063d aadf 543d 17d0 c53d 0e4c c23d
000001e0: 429b ff3d 2cbc cbbc 26a6 55bd c10f a43b
000001f0: a3e3 c3bc 0d5e 3bbd f963 5c3e 2442 1dbe
00000200: 758f abbe e7aa ccbe 1e32 99bf 0f07 10bc
00000210: 9240 c03c e833 a63c 7073 d53d 62e1 073e
00000220: 0ca7 453d 2ecb ed3c 76f5 fa3d 4ceb 5e3e
00000230: ee91 1f3e 1a08 1d3d 485a 233e 91d4 063e
00000240: c167 a33d 8e03 6b3b d912 723b 5750 a73b
00000250: a592 07be ce8e 51bd d086 8fbd f86c 09be
00000260: ab6e 0bbe 720b c93e 268c 0ebf 52c0 d7be
00000270: 2b74 96be bd17 f2bf 8d04 03bb 16c8 58bd
00000280: de88 893d dff9 2abd 829a 1ebd 82f7 98bd
00000290: e00f 49bd 0791 58bd 1d09 ca3c 362d 8a3e
000002a0: 71ca 3dbd db4a f03d 7807 083e b357 f93b
000002b0: eb3f 343e 515d 113e f0cd 053e 6c59 f03d
000002c0: 71ce d23d 4f24 7fbe 50c5 5e3e 0cd5 cc3c
000002d0: e5c8 20bd 1d76 2b3d 0e0a 7ebe a52e 753c
000002e0: bd27 8f3b 8cf8 d93d cc77 003c 69d2 b7bd
000002f0: 0c43 d3bd a73a 31be 9ea4 203e 7ef2 df3d
00000300: 1a2d b3bb bfe8 c4be ab5b 95bf 7015 b03c
00000310: ff82 b0bd a0d7 0bbd c4b5 833d d07c c33d
00000320: b8b8 bb3d ec2d f9bc 4c1c 053c ecd8 2dbd
00000330: 24ad 8abe bff7 dbbd 7d66 003e 67f5 3c3e
00000340: 5761 e33d 01c9 853e 6f3b ba3d b8b4 be3d
00000350: 0bae 9ebd 03ad d8be 9d07 8fbe 67cf a8bd
00000360: 5b30 0c3e da6e 013e b661 3dbd 3514 38bd
00000370: 9967 563c ad97 02bc 29e5 f0bd 0249 cebd
00000380: 1273 693d a17c 7cbc feba 46bd 134f 7bbe
00000390: 2177 08be 1a8c 483d 16d9 efbd 39db 9f3e
000003a0: 59cb bdbe be75 f83d d009 563e 6674 4c3d
000003b0: f115 f93d 3e3f e1bd ff63 d3bd aed4 7abd
000003c0: a1f2 c83d 6a92 033e 7c56 31bc daa3 1bbe
000003d0: d057 193e 84b6 06be bdd3 7c3b c559 30be
000003e0: 0f77 16be 7458 aebd e2b0 e6bb 2ca7 253e
000003f0: e277 dfbe 4ba9 babd 8dda 4e3e 842e c43b

fc1.bias f4 [64]
0.131576 -0.02821141 -0.18245175 -0.0151734315 0.28693998 0.02549306 -0.104066454 0.07808323
0.14166036 -0.06530144 0.17419307 0.20664121 0.07341132 0.124965675 -0.025017263 -0.0822756
0.09498525 -0.0006196868 -0.052870113 -0.21342342 -0.086211495 0.005927355 0.010323844 -0.0048601744
-0.165193 0.10583806 0.010066837 -0.14588498 0.26307455 0.13033149 -0.0011956326 -0.24088995
0.15109316 0.0029554989 -0.15092276 0.15534973 -0.07927712 0.021148842 -0.08645106 -0.06831235
-0.13398015 0.029008849 -0.07668248 0.2321455 0.059008926 -0.047743414 -0.019979939 -0.21864443
-0.19751245 -0.042434886 -0.17327115 0.08507434 -0.083772965 -0.16551392 -0.08630019 0.094726756
0.10677283 -0.010433854 -0.09746292 -0.069787405 -0.054959193 -0.055589452 0.04259881 0.06024268
00000000: dcbb 063e 9d1b e7bc a2d4 3abe fc99 78bc
00000010: cce9 923e d2d6 d03c cb20 d5bd 1aea 9f3d
00000020: 6a0f 113e c3bc 85bd ab5f 323e c199 533e
00000030: ad58 963d 01ee ff3d 01f1 ccbc 1c80 a8bd
00000040: a087 c23d 7a72 22ba 558e 58bd ab8b 5abe
00000050: a78f b0bd 423a c23b 5725 293c 1942 9fbb
00000060: 5b28 29be a0c1 d83d 60ef 243c df62 15be
00000070: b5b1 863e 9e75 053e c6b6 9cba dbab 76be
00000080: 2ab8 1a3e 0bb1 413b 7f8b 1abe 0014 1f3e
00000090: 0b5c a2bd 5640 ad3c 410d b1bd 58e7 8bbd
000000a0: 1832 09be f7a3 ed3c b40b 9dbd 8db7 6d3e
000000b0: 58b3 713d 998e 43bd f8ac a3bc 53e4 5fbe
000000c0: b440 4abe 34d0 2dbd fe6d 31be 753b ae3d
000000d0: 2991 abbd 7b7c 29be 27be b0bd 1a00 c23d
000000e0: b7ab da3d c1f2 2abc a49a c7bd b3ec 8ebd
000000f0: e41c 61bd c4b1 63bd 177c 2e3d 07c1 763d

fc2.weight f4 [64, 64]
0.0998725 0.27374038 0.1893925 -0.28279144 0.053334244 0.0041916682 -0.058385454 0.050081227
-0.2790944 0.22248442 -0.030390948 -0.15494336 -0.06111154 0.07727489 -0.030016888 0.13850245
-0.1548504 -0.108895265 0.01391594 0.06090549 0.06608947 0.033315178 -0.23917371 -0.42807028
0.016074821 -0.01077647 0.21700409 -0.07718001 -0.11275361 -0.104393005 0.4760736 -0.48905575
0.013599321 -0.39766294 0.012665194 0.11728869 0.0066517205 0.104956515 -0.14470989 -0.018269522
-0.16436964 -0.43118963 0.116059765 0.056754176 0.04190793 -0.2077554 -0.08418726 0.09933065
-0.18075767 0.04185107 -0.14698534 -0.28902957 -0.008410436 -0.0107285855 -0.055299565 -0.06745114
0.33526 -0.17108816 -0.19522977 0.15944828 0.053042196 0.18202443 -0.103342526 0.042529847
0.04607314 0.19533758 0.071452014 0.38541523 0.21593824 0.06428259 -0.13556543 -0.015936948
-0.056294978 0.14229736 0.03810723 0.19237687 -0.4160211 0.041808754 -0.02945915 0.06927996
0.09759244 0.13379242 -0.17292708 -0.0059580905 -0.012625014 -0.041587956 0.09068214 0.14189155
0.073099315 0.020893313 -0.21466544 -0.2660228 0.33345214 -0.17206128 0.1496691 -0.18974112
-0.021412289 -0.2813166 -0.008960497 0.16817893 -0.079247124 0.3772204 -0.11270476 -0.1466265
-0.073896 0.28359792 -0.0061776363 -0.02322367 -0.052073136 -0.12892865 -0.06454391 -0.12984073
0.00856551 0.054451175 -0.0077026077 0.18081069 -0.10706013 -0.20920527 -0.2182949 0.12135658
0.16045822 -0.086995006 0.13052605 -0.025986273 -0.08930171 -0.001353125 0.18456139 0.1270329
-0.17526034 -0.1729672 -0.05296482 0.10341269 0.1542609 0.056968987 -0.14399779 -0.13873938
0.22828017 0.32286263 0.038731128 0.01942061 0.003095544 0.113140695 0.033176973 0.24340935
-0.1294252 0.11692135 -0.06783271 -0.10504284 0.04728375 0.0466868 -0.003728691 -0.008623236
-0.0064968304 0.080391206 -0.033191666 0.23116596 0.08365023 -0.03367975 -0.22979118 -0.14604126
-0.11505753 -0.12743972 -0.040922057 0.25945133 0.14297026 -0.14038332 -0.24784127 -0.0583048
0.21421437 0.12969296 -0.1273039 -0.13477603 -0.004326541 -0.039152715 -0.0045341966 0.057392173
0.045142572 -0.13079515 -0.052906994 0.13358343 -0.128782 0.25552028 -0.40505162 0.15134163
-0.23740903 -0.18500936 0.14052936 0.121822216 0.06043049 -0.03182869 0.034736264 -0.08723525
-0.097086065 -0.21307276 0.23365055 -0.19305262 0.15049368 -0.16943751 0.010091337 -0.47079152
0.009671377 -0.08771982 -0.32258683 0.05848755 -0.1952571 0.101208754 -0.0025539163 0.04872654
-0.39431348 -0.17738028 -0.19032766 -0.07184345 -0.20006566 -0.008777121 0.10159236 0.1333015
0.07531802 0.10692642 0.03909751 0.043316737 -0.11934789 -0.119564004 -0.014972691 0.058999747
-0.06589695 -0.11904004 0.14982405 -0.110332996 -0.2123705 -0.17996317 0.0668916 -0.22859037
-0.032252524 0.079608336 -0.090669304 -0.16648087 -0.13253394 -0.07517053 0.12607434 0.10443217
-0.07972726 0.15521389 -0.30570582 0.059990045 0.19039638 0.0038241006 -0.02298563 0.09109848
-0.3031675 -0.0051174113 -0.17596763 0.04980032 -0.17982069 -0.09892937 -0.20208108 0.05449798
00000000: f489 cc3d b327 8c3e 1cf0 413e 0aca 90be
00000010: 0275 5a3d 435a 893b 9625 6fbd f921 4d3d
00000020: 76e5 8ebe f5d2 633e 70f6 f8bc 79a9 1ebe
00000030: 1850 7abd 4c42 9e3d fae5 f5bc 96d3 0d3e
00000040: 1a91 1ebe 7b04 dfbd afff 633c 0978 793d
00000050: eb59 873d 7f75 083d f4e9 74be 072c dbbe
00000060: 58af 833c cb8f 30bc 5236 5e3e 8e10 9ebd
00000070: 5deb e6bd 00cc d5bd ebbf f33e 8465 fabe
00000080: b0cf 5e3c 7a9a cbbe ad81 4f3c 0d35 f03d
00000090: adf6 d93b 71f3 d63d d42e 14be f7a9 95bc
000000a0: 8450 28be e3c4 dcbe beb0 ed3d 1177 683d
000000b0: a6a7 2b3d d5bd 54be 5f6a acbd de6d cb3d
000000c0: 8a18 39be 076c 2b3d 5383 16be affb 93be
000000d0: edcb 09bc f3c6 2fbc cc81 62bd d323 8abd
000000e0: 33a7 ab3e bc31 2fbe 50ea 47be 6946 233e
000000f0: c642 593d 9d64 3a3e 3fa5 d3bd c733 2e3d
00000100: 30b7 3c3d 9306 483e 6f55 923d 2555 c53e
00000110: ea1e 5d3e 97a6 833d aad1 0abe 348e 82bc
00000120: 9095 66bd 66b6 113e 5416 1c3d 71fe 443e
00000130: b800 d5be a83f 2b3d 5154 f1bc a7e2 8d3d
00000140: 8cde c73d e100 093e cc13 31be 163c c3bb
00000150: 26d9 4ebc 2258 2abd 8fb7 b93d 054c 113e
00000160: 18b5 953d 7428 ab3c 42d1 5bbe 2434 88be
00000170: 3dba aa3e d530 30be db42 193e 7f4b 42be
00000180: d368 afbc bb08 90be 0ccf 12bc 1937 2c3e
00000190: 514c a2bd 0823 c13e c1d1 e6bd 4225 16be
000001a0: c956 97bd bf33 913e c56d cabb 913f bebc
000001b0: a44a 55bd df05 04be 992f 84bd f8f4 04be
000001c0: 5a56 0c3c 3208 5f3d 2866 fcbb 7026 393e
000001d0: 5742 dbbd e839 56be b388 5fbe cc89 f83d
000001e0: 294f 243e 702a b2bd 9fa8 053e 2ae1 d4bc
000001f0: d1e3 b6bd 575b b1ba a9fd 3c3e ea14 023e
00000200: 7277 33be 501e 31be a4f1 58bd 08ca d33d
00000210: 92f6 1d3e 5058 693d 2874 13be b211 0ebe
00000220: 47c2 693e 404e a53e 88a4 1e3d f917 9f3c
00000230: 9cde 4a3b 4fb6 e73d 94e4 073d 4d40 793e
00000240: 0a88 04be 7674 ef3d e0eb 8abd b320 d7bd
00000250: 9bac 413d a83a 3f3d 0e5d 74bb 7948 0dbc
00000260: 5de3 d4bb 25a4 a43d fcf3 07bd c5b6 6c3e
00000270: d050 ab3d c7f3 09bd 614e 6bbe d78b 15be
00000280: 48a3 ebbd 8f7f 02be e39d 27bd ced6 843e
00000290: cc66 123e a5c0 0fbe 1aca 7dbe 04d1 6ebd
000002a0: 035b 5b3e 3bce 043e f45b 02be ba02 0abe
000002b0: a8c5 8dbb 995e 20bd 9993 94bb 0e14 6b3d
000002c0: 6be7 383d 2aef 05be 01b5 58bd 18ca 083e
000002d0: 6edf 03be 8ed3 823e ed62 cfbe 4df9 1a3e
000002e0: 5a1b 73be 1873 3dbe eee6 0f3e ed7d f93d
000002f0: f685 773d cd5e 02bd 9d47 0e3d 65a8 b2bd
00000300: 0fd5 c6bd bf2f 5abe 1742 6f3e 96af 45be
00000310: 041b 1a3e 0781 2dbe 2356 253c 960b f1be
00000320: b274 1e3c 73a6 b3bd 1a2a a5be a490 6f3d
00000330: 7af1 47be 8946 cf3d 9b5f 27bb 7b95 473d
00000340: 75e3 c9be 2da3 35be 41e5 42be a922 93bd
00000350: 03de 4cbe eacd 0fbc a80f d03d 3080 083e
00000360: 5640 9a3d 3dfc da3d b624 203d e46c 313d
00000370: ab6c f4bd f9dd f4bd 0550 75bc b8a9 713d
00000380: fbf4 86bd 44cb f3bd 7a6b 193e 44f6 e1bd
00000390: a777 59be 4448 38be 77fe 883d 9813 6abe
000003a0: 391b 04bd b209 a33d d4b0 b9bd f679 2abe
000003b0: fab6 07be 02f3 99bd a219 013e 89e0 d53d
000003c0: 0c48 a3bd 64f0 1e3e 7985 9cbe 1fb8 753d
000003d0: 45f7 423e c39d 7a3b 5c4c bcbc d791 ba3d
000003e0: c538 9bbe f5af a7bb dc30 34be 6cfb 4b3d
000003f0: ea22 38be 7b9b cabd 58ee 4ebe 4639 5f3d

fc2.bias f4 [64]
0.107610285 0.061761834 0.08262107 0.022634145 0.343534 -0.06990675 -0.14203636 0.05716887
0.22956294 0.36005986 -0.06142429 0.22237077 0.045041915 0.053235702 -0.03170669 0.08878246
-0.008906991 -0.24981743 -0.10170184 0.12957567 0.14303859 0.44935805 -0.057164058 -0.15609677
-0.22868538 -0.11698319 0.07511104 -0.09542474 -0.06150593 0.20869595 0.0597709 -0.044734195
-0.013520709 0.02732746 0.026639165 -0.08245936 -0.09805401 -0.16962959 0.3113915 -0.05526821
-0.10427255 0.4370494 0.11535616 -0.056388564 -0.011582839 -0.13928747 0.1537409 -0.0446879
0.1329363 -0.061295852 0.027242975 0.32990912 -0.06338818 -0.09034744 0.3112562 -0.10383079
-0.17751564 -0.11047896 -0.038607057 -0.13272466 0.03063657 0.024394274 0.076259315 -0.12100715
00000000: c862 dc3d faf9 7c3d 3c35 a93d 3e6b b93c
00000010: b0e3 af3e 452b 8fbd fb71 11be e829 6a3d
00000020: 8c12 6b3e c459 b83e 0998 7bbd 2ab5 633e
00000030: df7d 383d ae0d 5a3d e0de 01bd 94d3 b53d
00000040: a1ee 11bc 24d0 7fbe 0e49 d0bd 7caf 043e
00000050: b578 123e 4212 e63e dc24 6abd d5d7 1fbe
00000060: 802c 6abe e294 efbd d1d3 993d 0c6e c3bd
00000070: a4ed 7bbd 64b4 553e 55d2 743d 343b 37bd
00000080: f785 5dbc d6dd df3c 613a da3c 74e0 a8bd
00000090: 8ad0 c8bd 61b3 2dbe b56e 9f3e eb60 62bd
000000a0: d98c d5bd f0c4 df3e da3f ec3d b2f7 66bd
000000b0: f3c5 3dbc 60a1 0ebe 416e 1d3e a90a 37bd
000000c0: 7420 083e 5c11 7bbd a92c df3c d9e9 a83e
000000d0: aad1 81bd 1408 b9bd f95c 9f3e 3da5 d4bd
000000e0: a9c6 35be cb42 e2bd 6f22 1ebd f9e8 07be
000000f0: 8bf9 fa3c 80d6 c73c d82d 9c3d 99d2 f7bd

fc3.weight f4 [4, 64]
0.33248076 0.23333697 0.11408081 -0.25340486 0.16494727 -0.22524364 0.09905743 -0.38228428
0.12809151 0.11482802 -0.08568331 0.33602783 0.265766 -0.0741673 0.32183155 0.08297794
-0.029525202 -0.029907588 -0.010095879 0.1714221 0.0976415 0.132862 0.32277352 -0.27959767
-0.079997346 -0.08858772 0.18240166 -0.09147636 0.55108124 0.20223935 -0.38724312 0.19490746
-0.29937562 0.23460528 0.19112204 -0.057069384 0.054745335 -0.06267698 0.09127597 0.03758436
-0.062443588 0.15035437 -2.255165e-05 0.3136157 0.12626879 -0.15275612 0.10322915 0.06830773
0.36395305 -0.05164583 -0.004814133 0.3689301 0.18595433 0.035006423 0.15246673 0.070921876
-0.43400478 -0.036073245 -0.15956369 -0.1635531 -0.24114281 0.29831043 -0.05848551 0.4221381
0.15532367 0.16461293 0.16141352 -0.0032124615 0.10932438 0.0856443 0.36724433 -0.01610295
0.13857251 0.08754682 0.08177219 0.30701414 0.32672608 0.15885858 0.49698868 0.104151465
-0.11082804 -0.07504917 -0.08436006 0.13043281 0.13314736 0.20664433 0.34976804 -0.17078306
-0.08008167 -0.031722646 0.049585856 -0.009621392 0.47266307 0.25509548 0.13139194 0.2459637
-0.17369312 -0.5492847 0.16362777 -0.08491682 0.0799294 0.08297435 0.06598946 -0.0005097289
0.27018198 0.13655217 0.002510832 0.2350778 0.017587442 -0.07428294 0.1567443 0.122518696
0.31683707 -0.14552143 0.06835356 0.31490725 -0.06236289 -0.13743554 0.09168902 0.32884154
-0.14398167 -0.052197125 0.018418321 -0.27125663 -0.1365112 0.24035606 -0.62227166 -0.2571848
0.25305477 0.16472934 0.25330865 -0.13505678 0.21314862 0.19902793 0.49101853 0.12107127
0.12236279 0.10888693 -0.080030344 0.30994648 0.60409033 -0.4854737 0.0069219135 0.2633385
0.03141938 -0.0797486 -0.06027863 -0.015001632 0.080876164 0.17489994 -0.0743293 -0.06878417
0.011490465 -0.05774283 0.08040285 -0.14381246 0.3070396 0.4254576 0.0008094783 0.09884554
-0.3974324 -0.24528608 0.06427663 0.031536516 -0.1631577 -0.05590668 0.18017767 0.05041629
0.25912493 0.10973861 0.23958132 0.22086672 0.10358993 -0.0016909422 0.08699797 0.19574808
0.31021908 -0.15022713 0.07581856 0.36321962 -0.2225632 0.2709148 0.08298228 0.30486113
-0.21600263 -0.24970618 0.12649502 -0.33906648 -0.3098852 0.5551964 -0.6160503 -0.5519276
0.31026894 0.18931599 0.09320428 -0.34235936 0.0323634 -0.11585922 -0.3585793 0.14384627
0.26719323 0.16919829 0.21605618 0.22624014 0.20341557 0.015306495 0.6637953 -0.06327475
0.11740197 -0.101661384 0.0514877 0.12599269 0.09386868 0.16590384 0.10439301 0.04319017
-0.2257921 -0.04821792 -0.29550916 0.25886413 0.34320205 -0.025647538 -0.15850528 0.20987928
-0.19479021 0.019547686 -0.019518424 -0.39838833 -0.5395265 0.07215839 0.15572387 0.04446718
-0.4500745 0.19394833 0.1311751 -0.012252083 0.3353365 -0.106284864 0.040928297 0.18012242
0.20005171 -0.55610377 0.15163568 0.32796898 0.042013086 -0.18935552 0.1400048 0.34453818
-0.31115562 -0.28105113 -0.66426545 -0.15114248 -0.40257883 0.37595358 -0.060579173 0.1653978
00000000: eb3a aa3e e3ef 6e3e 33a3 e93d 48be 81be
00000010: f0e7 283e 45a6 66be 9fde ca3d c4ba c3be
00000020: 6c2a 033e f42a eb3d bb7a afbd d70b ac3e
00000030: 7b12 883e 06e5 97bd 1bc7 a43e 57f0 a93d
00000040: d6de f1bc c200 f5bc 3069 25bc 4689 2f3e
00000050: 44f8 c73d fa0c 083e 9242 a53e 6d27 8fbe
00000060: a6d5 a3bd 7b6d b5bd 80c7 3a3e f557 bbbd
00000070: a913 0d3f d517 4f3e bb44 c6be d295 473e
00000080: c347 99be 5e3c 703e 7fb5 433e 96c1 69bd
00000090: a53c 603d ca5c 80bd e5ee ba3d 0ff2 193d
000000a0: d9c4 7fbd 7ff6 193e 4d2d bdb7 3d92 a03e
000000b0: 9b4c 013e 1a6c 1cbe ce69 d33d ece4 8b3d
000000c0: 0e58 ba3e 948a 53bd e0bf 9dbb 68e4 bc3e
000000d0: d06a 3e3e e562 0f3d 3d20 1c3e 7d3f 913d
000000e0: e035 debe 8ac1 13bd aa64 23be 777a 27be
000000f0: 24ee 76be 25bc 983e 818e 6fbd 7c22 d83e
00000100: 2b0d 1f3e 4b90 283e 9649 253e 2988 52bb
00000110: 76e5 df3d 4766 af3d 7307 bc3e 55ea 83bc
00000120: f4e5 0d3e bf4b b33d 2e78 a73d f530 9d3e
00000130: a448 a73e d3ab 223e 4d75 fe3e 5d4d d53d
00000140: d0f9 e2bd 61b3 99bd f8c4 acbd 2e90 053e
00000150: c857 083e 929a 533e cc14 b33e c1e1 2ebe
00000160: dc01 a4bd 9bef 01bd 8a1a 4b3d 0ba3 1dbc
00000170: e500 f23e e09b 823e 9c8b 063e e8dd 7b3e
00000180: 9cdc 31be ec9d 0cbf 0a8e 273e dfe8 adbd
00000190: 06b2 a33d 75ee a93d 7b25 873d 549f 05ba
000001a0: 4b55 8a3e 55d4 0b3e c58c 243b 3cb8 703e
000001b0: 8a13 903c a721 98bd 9481 203e 15eb fa3d
000001c0: 7838 a23e 9203 15be f4fc 8b3d 863b a13e
000001d0: 3b70 7fbd e7bb 0cbe 74c7 bb3d eb5d a83e
000001e0: ee6f 13be a7cc 55bd 05e2 963c 26e2 8abe
000001f0: 98c9 0bbe e61f 763e 324d 1fbf baad 83be
00000200: 6590 813e cfae 283e acb1 813e 534c 0abe
00000210: a243 5a3e facd 4b3e c866 fb3e 37f4 f73d
00000220: 5899 fa3d 1c00 df3d f3e6 a3bd 4eb1 9e3e
00000230: aaa5 1a3f 0290 f8be 38d1 e23b 4ed4 863e
00000240: 9cb1 003d 3c53 a3bd bae6 76bd 68c9 75bc
00000250: 67a2 a53d f818 333e f639 98bd b7de 8cbd
00000260: 8142 3c3c bf83 6cbd 40aa a43d 9343 13be
00000270: 4b34 9d3e 94d5 d93e 2b33 543a 886f ca3d
00000280: 427c cbbe 462c 7bbe 77a3 833d 6f2c 013d
00000290: d012 27be 67fe 64bd 7f80 383e 5081 4e3d
000002a0: 06ac 843e a3be e03d ce54 753e e32a 623e
000002b0: f526 d43d 9ba2 ddba fe2b b23d 2f72 483e
000002c0: 09d5 9e3e 24d5 19be c346 9b3d ecf7 b93e
000002d0: 9ce7 63be 58b5 8a3e 9df2 a93d c216 9c3e
000002e0: cb2f 5dbe fab2 7fbe e987 013e 1f9a adbe
000002f0: 46a9 9ebe 5a21 0e3f 79b5 1dbf 214b 0dbf
00000300: 92db 9e3e 0ddc 413e e3e1 be3d ba49 afbe
00000310: 7c8f 043d 9947 edbd b597 b7be 704c 133e
00000320: 8dcd 883e 5142 2d3e d53d 5d3e 7fab 673e
00000330: 2c4c 503e 18c8 7a3c 7dee 293f 3196 81bd
00000340: 7270 f03d d833 d0bd c4e4 523d 3a04 013e
00000350: 393e c03d b2e2 293e 01cc d53d 2de8 303d
00000360: 0b36 67be 2780 45bd fa4c 97be d789 843e
00000370: 2eb8 af3e c91a d2bc 354f 22be 98ea 563e
00000380: 1677 47be 7822 a03c 1ae5 9fbc 8ef9 cbbe
00000390: 691e 0abf c7c7 933d 1476 1f3e 3823 363d
000003a0: 2a70 e6be 649a 463e c452 063e f6bc 48bc
000003b0: 3ab1 ab3e e1ab d9bd 6ea4 273d 0372 383e
000003c0: 5bda 4c3e d15c 0ebf 6246 1b3e 8deb a73e
000003d0: ea15 2c3d 6ae6 41be 6b5d 0f3e 4f67 b03e
000003e0: ca4f 9fbe efe5 8fbe 4d0d 2abf 18c5 1abe
000003f0: d01e cebe fd7c c03e de21 78bd 0a5e 293e

fc3.bias f4 [4]
0.25885776 0.21420643 0.12058114 0.1727755
00000000: 0189 843e ee58 5b3e 3ff3 f63d 10ec 303e
